save/20240225/128/policy_net.pt (torch, 147622 bytes, 6 tensors)

layer1.weight f4 [128, 150]
0.0060714246 -0.011239402 0.011555376 0.02038194 -0.06896548 0.00398684 -0.04813405 -0.06709363
0.0522007 -0.043115146 0.023413984 0.046080887 0.007150842 -0.056352828 0.013526508 -0.0031801402
0.062650554 -0.03524855 0.033280544 0.014977995 0.11524513 0.08788226 -0.038204458 -0.026679186
-0.015041994 0.057139162 0.10783875 -0.04451491 0.04212609 -0.048751436 -0.05520841 0.034088645
-0.002037418 -0.07932691 0.043490686 0.10763157 0.086940005 -0.058363482 -0.057160974 -0.06398036
0.03153006 0.0842585 -0.035881404 0.06258996 0.06453806 0.0039029073 0.013902811 0.043940023
-0.017838767 0.021803714 0.02102766 0.0494222 -0.044062264 0.058781154 -0.0071218093 -0.024555307
-0.025719985 -0.0046831802 0.026467139 -0.057739723 0.024516473 0.08564043 0.031385526 0.04677357
-0.06286442 -5.710532e-05 0.091960184 -0.014525587 0.07364875 -0.03980262 0.08528453 0.055113483
-0.058543358 -0.002047903 -0.028604941 0.05262113 0.093015134 -0.031298097 0.004787928 -0.060832504
0.047252037 0.03719322 0.042648647 0.033500753 -0.010619137 -0.0071686073 -0.015709149 0.0024849789
-0.059802722 0.048947264 -0.06824561 -0.018288093 -0.03709334 -0.018019835 -0.012020273 -0.12866889
0.017008329 -0.07398434 -0.07093749 -0.045318406 -0.05120283 0.018007528 0.021666732 0.025597747
-0.0028197805 -0.10689166 0.0013245438 -0.021579372 -0.065427415 -0.0421207 -0.17609896 -0.10070309
-0.059623852 -0.030331353 0.056795068 -0.13648133 0.0265714 0.02351794 0.027958483 0.036024287
-0.10200365 0.060492467 -0.07211314 -0.019554963 -0.008896066 -0.019430881 -0.030566813 -0.0619046
-0.060777348 0.018960917 -0.024766624 0.05893371 0.008735099 0.009200567 -0.029940823 0.05109955
0.13811456 0.025442243 -0.012340324 -0.024068125 -0.031560935 -0.009353622 0.03127676 -0.041566275
0.055251874 0.29596084 0.15719855 0.11036508 0.040205244 0.027496008 -0.07651346 0.041163847
-0.012603999 -0.005170097 -0.04069313 -0.06522578 0.030527923 -0.06364074 -0.031085743 -0.022716152
-0.03448572 -0.06487863 -0.014355741 -0.045036457 0.0076761106 -0.01818798 -0.0524024 -0.034368724
0.0040583466 0.045866624 -0.059348375 0.042879295 -0.05042964 -0.068352096 0.008314775 -0.016507419
0.034269333 -0.088167876 -0.05889415 0.009987636 -0.05174019 -0.026439752 0.007776892 -0.06606019
-0.059557106 -0.059082046 -0.0020122454 -0.009471809 0.037528176 -0.02119029 -0.05607603 -0.055789717
-0.08391154 0.03690681 0.026753023 -0.02764362 -0.01512686 -0.022524484 -0.020879993 -0.053774465
-0.14306974 -0.019477583 -0.09596513 -0.05770943 -0.046762973 -0.043589104 0.009194859 -0.0004878837
0.010156199 -0.020792086 -0.04997642 -0.024735063 0.037365954 0.007767369 -0.020549081 0.026973357
0.023051497 -0.018536374 0.0011753072 0.06641307 -0.03201465 0.03890636 -0.046948735 0.020274097
-0.028361846 0.025111219 -0.056365985 0.042299986 0.022986721 0.0016298669 -0.037769735 -0.09115112
0.024775112 0.0014188715 -0.0031619964 -0.040348586 0.017523682 0.008010335 -0.06404061 0.013677541
0.0029934905 -0.04533233 -0.090703115 0.001641641 0.03854447 0.14299074 -0.040931497 0.044299826
0.008590019 0.07293323 0.15808025 0.06411476 0.0045179613 0.051600304 0.08136209 0.034600753
00000000: cdf2 c63b 7825 38bc c352 3d3c 07f8 a63c
00000010: c63d 8dbd 0aa4 823b 3628 45bd 6368 89bd
00000020: 67d0 553d 8299 30bd afce bf3c 50bf 3c3d
00000030: 9c51 ea3b 39d2 66bd 499e 5d3c e669 50bb
00000040: ef4e 803d c960 10bd 2e51 083d 4466 753c
00000050: a405 ec3d 9dfb b33d 477c 1cbd 4f8e dabc
00000060: b272 76bc c10a 6a3d 90da dc3d 4455 36bd
00000070: 688c 2c3d 96af 47bd 3722 62bd 89a0 0b3d
00000080: 3486 05bb 2676 a2bd 4a23 323d f16d dc3d
00000090: 9a0d b23d 8c0e 6fbd a021 6abd 2308 83bd
000000a0: aa25 013d b88f ac3d 61f8 12bd 2a2f 803d
000000b0: 882c 843d ebc7 7f3b 9ec8 633c 74fa 333d
000000c0: 9b22 92bc b49d b23c 3342 ac3c ef6e 4a3d
000000d0: a27a 34bd 82c4 703d 115e e9bb 3628 c9bc
000000e0: b8b2 d2bc 5d75 99bb 9dd1 d83c 7d80 6cbd
000000f0: c5d6 c83c 4064 af3d 1c8e 003d a595 3f3d
00000100: 10bf 80bd 5f84 6fb8 9f55 bc3d bafc 6dbc
00000110: 28d5 963d 1208 23bd a8a9 ae3d adbe 613d
00000120: 29cb 6fbd 1c36 06bb e954 eabc 4189 573d
00000130: b87e be3d 6f32 00bd 0de4 9c3b 812b 79bd
00000140: 5a8b 413d eb57 183d 59b0 2e3d 1638 093d
00000150: e4fb 2dbc a3e6 eabb 79b0 80bc 07db 223b
00000160: b3f3 74bd ed7c 483d 5bc4 8bbd e9d0 95bc
00000170: 30ef 17bd 559e 93bc aef0 44bc c7c1 03be
00000180: 0d55 8b3c 1a85 97bd ad47 91bd cb9f 39bd
00000190: 0fba 51bd 8684 933c 6e7e b13c 5eb2 d13c
000001a0: 11cc 38bb 04ea dabd 519c ad3a 39c7 b0bc
000001b0: cffe 85bd c186 2cbd 4953 34be 6c3d cebd
000001c0: 2438 74bd 7579 f8bc f2a1 683d c3c1 0bbe
000001d0: 44ac d93c b2a8 c03c 3009 e53c 348e 133d
000001e0: 4ae7 d0bd f3c6 773d 0eb0 93bd bb31 a0bc
000001f0: cec0 11bc 832d 9fbc 4167 fabc ae8f 7dbd
00000200: abf1 78bd ed53 9b3c 60e3 cabc 7964 713d
00000210: a91d 0f3c fabd 163c 7546 f5bc c34d 513d
00000220: e76d 0d3e 406c d03c 122f 4abc 842a c5bc
00000230: 0a46 01bd ef3f 19bc 0f1c 003d 6641 2abd
00000240: ca4f 623d 2e88 973e a8f8 203e 1607 e23d
00000250: 41ae 243d 4f3f e13c 17b3 9cbd 6c9b 283d
00000260: 0181 4ebc eb69 a9bb d7ad 26bd 1895 85bd
00000270: b215 fa3c 1456 82bd 87a7 febc 3917 babc
00000280: e640 0dbd 16df 84bd 5834 6bbc 2678 38bd
00000290: e287 fb3b f5fe 94bc e6a3 56bd 38c6 0cbd
000002a0: e1fb 843b a4de 3b3d 4817 73bd 33a2 2f3d
000002b0: 4f8f 4ebd 2ffc 8bbd b23a 083c 913a 87bc
000002c0: 005e 0c3d 5c91 b4bd fe3a 71bd 2ea3 233c
000002d0: 85ed 53bd 2e98 d8bc 4cd5 fe3b 914a 87bd
000002e0: 27f2 73bd 0400 72bd e0df 03bb a52f 1bbc
000002f0: 25b7 193d 4297 adbc fbaf 65bd c283 64bd
00000300: d0d9 abbd 982b 173d 2829 db3c df74 e2bc
00000310: a6d6 77bc 4485 b8bc 850c abbc 9d42 5cbd
00000320: e080 12be 748f 9fbc 5e89 c4bd b960 6cbd
00000330: 888a 3fbd 7d8a 32bd 09a6 163c a4ca ffb9
00000340: 3066 263c 2a54 aabc 13b4 4cbd 30a1 cabc
00000350: 0b0d 193d 6a85 fe3b 8c56 a8bc 3bf7 dc3c
00000360: 7ed6 bc3c 98d9 97bc c40c 9a3a 9303 883d
00000370: cb21 03bd 465c 1f3d 514d 40bd dd15 a63c
00000380: 1a57 e8bc 0bb6 cd3c 05e0 66bd c042 2d3d
00000390: a64e bc3c 42a1 d53a 70b4 1abd 70ad babd
000003a0: 2df5 ca3c 6df9 b93a 7f39 4fbb 8f44 25bd
000003b0: d38d 8f3c c83d 033c b927 83bd c417 603c
000003c0: 702e 443b 65ae 39bd 8ec2 b9bd 552c d73a
000003d0: cee0 1d3d 2a6c 123e c9a7 27bd bc73 353d
000003e0: 27bd 0c3c 045e 953d cadf 213e 994e 833d
000003f0: 680b 943b d75a 533d 2ba1 a63d 85b9 0d3d

layer1.bias f4 [128]
0.040584583 -0.046566784 -0.02018434 0.058024492 -0.013361287 -0.020464206 0.062163927 0.040373366
-0.009876987 0.053245004 -0.07254453 -0.08239831 0.06576074 -0.016434869 -0.074980564 -0.0018848423
-0.053331226 0.044085506 -0.061610095 -0.05292862 0.080600046 0.01735724 -0.007034948 0.0031255663
-0.023073668 -0.08718254 0.00701945 -0.064672835 -0.06606596 -0.00202794 -0.09750549 -0.06553424
-0.0187828 0.058148548 -0.07584923 -0.02431656 -0.058837418 0.0073263803 -0.037797388 0.0007641162
-0.038321614 -0.13411179 0.057736006 -0.050551396 0.014562817 0.03794971 -0.02405779 -0.029684933
0.016382422 0.025353085 -0.10611364 0.008578547 -0.039740838 -0.032986984 -0.13790305 0.008457901
0.10157537 0.00016719163 -0.08271741 -0.0065111956 0.004581173 -0.011594645 0.06747087 -0.017062008
-0.027407043 -0.15323748 0.051902838 0.015548277 0.02721166 0.031171698 -0.008264016 -0.107376836
-0.09065055 -0.08100114 -0.014604469 -0.029885149 0.016501782 -0.067907885 0.032107808 -0.016537784
-0.014066477 0.028458722 -0.034266368 0.027966056 -0.10797799 -0.070582524 0.04823142 -0.04282557
0.07244996 0.0049608415 0.069644056 0.014637541 0.059574522 -0.011753498 -0.03512036 0.048727218
-0.077517115 -0.099684685 -0.01875004 -0.027514886 0.010037618 0.011354251 0.035871264 0.037765183
-0.06396508 -0.058869258 -0.0026769533 -1.6594036e-05 0.06680289 -0.048211675 0.028371222 0.089890674
0.0922549 -0.028911011 0.004123417 -0.10472434 0.0063752006 -0.04419402 0.07863383 -0.104921624
-0.0027856186 -0.020710846 -0.013892624 0.041847285 0.04485096 -0.069236085 -0.08809395 -0.08893142
00000000: 053c 263d d0bc 3ebd a159 a5bc 17ab 6d3d
00000010: 4de9 5abc 8da4 a7bc 9a9f 7e3d 8b5e 253d
00000020: 16d3 21bc 6f17 5a3d 3a92 94bd 72c0 a8bd
00000030: 91ad 863d 6ba2 86bc 698f 99bd d00c f7ba
00000040: d871 5abd 0193 343d de5a 7cbd aecb 58bd
00000050: a311 a53d c530 8e3c 6c85 e6bb 4dd6 4c3b
00000060: fd04 bdbc c28c b2bd 6a03 e63b 3173 84bd
00000070: 974d 87bd 30e7 04bb f5b0 c7bd d136 86bd
00000080: 63de 99bc 2c2d 6e3d d756 9bbd 8633 c7bc
00000090: 81ff 70bd 2212 f03b 6fd1 1abd f84e 483a
000000a0: 20f7 1cbd 9a54 09be 977c 6c3d fb0e 4fbd
000000b0: e298 6e3c 2871 1b3d d814 c5bc d12d f3bc
000000c0: 6e34 863c 46b1 cf3c 1c52 d9bd 098d 0c3c
000000d0: 4ac7 22bd 5c1d 07bd 7536 0dbe 0293 0a3c
000000e0: bf06 d03d 2950 2f39 bf67 a9bd de5b d5bb
000000f0: aa1d 963b 77f7 3dbc 2b2e 8a3d a0c5 8bbc
00000100: bc84 e0bc 49ea 1cbe 1298 543d 33be 7e3c
00000110: fdea de3c ca5b ff3c cc65 07bc 63e8 dbbd
00000120: ffa6 b9bd ede3 a5bd 9547 6fbc b3d1 f4bc
00000130: bf2e 873c 4a13 8bbd 7a83 033d 3f7a 87bc
00000140: 1577 66bc 4422 e93c e45a 0cbd 1219 e53c
00000150: 9023 ddbd 928d 90bd 4f8e 453d dd69 2fbd
00000160: a560 943d 8e8e a23b 8ba1 8e3d 4cd2 6f3c
00000170: 6a04 743d be91 40bc 5eda 0fbd 3196 473d
00000180: 4bc1 9ebd 7c27 ccbd af99 99bc e666 e1bc
00000190: d274 243c 2e07 3a3c bfed 123d aaaf 1a3d
000001a0: 2000 83bd e420 71bd d36f 2fbb 6c33 8bb7
000001b0: f4cf 883d 9b79 45bd c46a e83c 9a18 b83d
000001c0: 23f0 bc3d c9d6 ecbc bb1d 873b b779 d6bd
000001d0: 0fe7 d03b ca04 35bd c60a a13d 26e1 d6bd
000001e0: ed8e 36bb cba9 a9bc e39d 63bc 0f68 2b3d
000001f0: a4b5 373d a6cb 8dbd 9a6a b4bd ad21 b6bd

layer2.weight f4 [128, 128]
0.07554739 0.07914887 -0.0075282347 -0.055194005 0.09688444 -0.0114355385 0.047977697 -0.10831299
-0.061619215 0.1269725 -0.11766204 -0.2264671 0.039906964 0.00018296429 -0.04702528 0.08358367
0.053208236 -0.09980289 0.08157477 0.001982917 -0.03281434 -0.05231409 0.0027959968 0.11937242
0.08991458 -0.19852288 -0.22435081 0.059661556 0.076022275 0.03441949 0.08727602 -0.09617602
0.004471914 0.010662672 -0.05503514 0.073055916 0.0053239292 -0.0855968 0.0016151102 0.028227132
-0.10326817 0.024699997 0.06666677 -0.13155687 -0.042322945 0.16121636 -0.080143 -0.07161652
0.15450633 -0.0244316 -0.113014534 -0.24695149 -0.021707727 0.08029413 -0.06230814 -0.07824815
0.03343273 -0.068393484 -0.11546517 0.03544609 -0.17172539 -0.10066302 -0.07933613 -0.04398224
0.058319025 0.029959649 0.08948567 0.06742458 0.0054077897 -0.058489267 0.14234714 -0.15187642
0.06407226 -0.07533413 0.048496254 -0.10833009 0.07691984 0.035649817 -0.02753704 -0.013901246
-0.10544312 0.01130496 -0.10798539 -0.03244712 0.07322331 0.08736469 -0.10278999 -0.0034728777
0.008923828 -0.07256322 -0.024836749 -0.008278448 0.004188466 -0.1318302 0.0450067 0.095930405
-0.019068843 -0.049212217 0.014650041 -0.054763973 0.012304894 -0.23999842 -0.06322337 0.1060129
-0.0007489722 0.20679979 0.05362398 -0.11820417 0.090343624 0.0240354 0.11863752 0.030490229
0.07150332 0.099471 0.15459058 0.11158692 0.002659163 -0.07645121 -0.11788862 0.036550302
0.024968378 0.041943945 -0.12585707 0.09134324 0.11560199 -0.32465643 -0.0047646747 -0.06066025
0.028092396 0.061835784 0.07277036 -0.041640405 0.013258589 0.015217898 0.10296926 0.04040419
-0.068082176 -0.064956956 -0.019092452 0.1919288 0.04237778 -0.0126081 -0.026671674 0.08937942
0.032561194 0.023483617 0.09567005 -0.14142036 -0.019633131 0.1096134 -0.023722732 -0.027960485
-0.056287758 -0.08857559 -0.04591174 0.082619354 -0.0027230254 0.01766692 -0.014537884 -0.022629565
0.05373651 0.081654616 0.0032758424 0.03363183 0.08502996 0.091292046 -0.045258977 -0.0009400395
-0.0051764515 0.057478014 0.0026215846 0.0040700943 0.03771618 0.018907005 -0.0036390082 -0.037404783
0.05306495 -0.02990834 -0.06417721 0.0037351898 0.08551888 0.026502859 0.10486756 0.030170022
0.018606968 0.030398378 -0.04062919 0.054051813 0.046714257 0.025919545 0.021140488 -0.06723219
-0.047591884 0.033762425 0.0843309 -0.015440938 0.09593351 -0.054837972 -0.1028444 -0.015035097
0.11269524 0.07513147 0.017441694 0.008307909 0.010245789 0.10605444 -0.012322474 0.060031377
0.001577281 0.044035703 0.20256631 -0.027643505 -0.06266772 -0.04803433 0.04015616 -0.12164075
0.15651709 0.03547357 -0.045973886 0.056313757 0.039154902 -0.015069954 -0.07617281 -0.038245708
-0.0485847 -0.08961807 0.037042215 -0.029622048 0.0149727035 -0.04408972 0.020241072 -0.04262202
0.08339254 0.07099112 0.05599325 0.0837342 0.064402305 -0.004186248 0.03463134 -0.0151836155
0.065053515 -0.064982384 0.114198186 0.007415034 -0.08548692 -0.048001673 -0.034013323 0.03165909
0.041283283 -0.0078082383 -0.046045993 -0.05266533 -0.10879378 0.0830509 -0.0021600602 -0.013302126
00000000: 97b8 9a3d ce18 a23d 69af f6bb 1c13 62bd
00000010: 596b c63d 205c 3bbc 4384 443d 33d3 ddbd
00000020: 6e64 7cbd 1405 023e ccf8 f0bd fee6 67be
00000030: 7c75 233d 1ada 3f39 949d 40bd ea2d ab3d
00000040: e1f0 593d 7565 ccbd ac10 a73d d4f3 013b
00000050: 5468 06bd 4d47 56bd 0b3d 373b 8779 f43d
00000060: 2325 b83d 9549 4bbe 38bc 65be ad5f 743d
00000070: 91b1 9b3d 73fb 0c3d c5bd b23d eff7 c4bd
00000080: 2289 923b 7db2 2e3c 876c 61bd 579e 953d
00000090: 5b74 ae3b 604d afbd 1bb2 d33a 963c e73c
000000a0: 437e d3bd a657 ca3c 9688 883d d8b6 06be
000000b0: d35a 2dbd e715 253e 0322 a4bd afab 92bd
000000c0: e836 1e3e c724 c8bc 2a74 e7bd dae0 7cbe
000000d0: 67d4 b1bc 4071 a43d d236 7fbd 9140 a0bd
000000e0: c2f0 083d e211 8cbd 0179 ecbd eb2f 113d
000000f0: c8d8 2fbe 6a28 cebd fb7a a2bd b926 34bd
00000100: eedf 6e3d f06d f53c 4344 b73d e615 8a3d
00000110: d433 b13b 7192 6fbd 73c3 113e 7e85 1bbe
00000120: 5138 833d c848 9abd 02a4 463d 2bdc ddbd
00000130: 2688 9d3d 8b05 123d 5c95 e1bc 0dc2 63bc
00000140: 90f2 d7bd 7038 393c 7227 ddbd 45e7 04bd
00000150: 1af6 953d 42ec b23d 8f83 d2bd 3899 63bb
00000160: 3f35 123c 079c 94bd 7076 cbbc 54a2 07bc
00000170: 663f 893b 7ffe 06be f258 383d 2977 c43d
00000180: 4336 9cbc c092 49bd ba06 703c 3050 60bd
00000190: 779a 493c 25c2 75be 417b 81bd 4b1d d93d
000001a0: ac56 44ba 53c3 533e d2a4 5b3d 0715 f2bd
000001b0: 1406 b93d e3e5 c43c 3af8 f23d a5c6 f93c
000001c0: 5570 923d 74b7 cb3d fe4c 1e3e af87 e43d
000001d0: 5a45 2e3b 7492 9cbd 976f f1bd c5b5 153d
000001e0: 7c8a cc3c 6acd 2b3d ade0 00be 2a12 bb3d
000001f0: bcc0 ec3d 5e39 a6be fd20 9cbb e276 78bd
00000200: 0622 e63c 8547 7d3d a008 953d 218f 2abd
00000210: 8e3a 593c 7e54 793c 8ce1 d23d dd7e 253d
00000220: ab6e 8bbd 2708 85bd c667 9cbc fc88 443e
00000230: 5394 2d3d 3492 4ebc 8e7e dabc 8f0c b73d
00000240: e35e 053d b760 c03c a9ee c33d 80d0 10be
00000250: a9d5 a0bc fe7c e03d 2d56 c2bc 630d e5bc
00000260: fe8d 66bd 1e67 b5bd f30d 3cbd 5634 a93d
00000270: c974 32bb 37ba 903c 4e30 6ebc a361 b9bc
00000280: d11a 5c3d 893a a73d 84af 563b 88c1 093d
00000290: 3024 ae3d 53f7 ba3d 7a61 39bd fc6c 76ba
000002a0: 399f a9bb 116e 6b3d e4ce 2b3b 6d5e 853b
000002b0: 487c 1a3d dde2 9a3c 6d7c 6ebb c235 19bd
000002c0: a25a 593d 5602 f5bc 576f 83bd 16ca 743b
000002d0: 8624 af3d 861c d93c cec4 d63d 1f27 f73c
000002e0: a46d 983c 0506 f93c cb6a 26bd 6f65 5d3d
000002f0: 7357 3f3d 3a55 d43c d12e ad3c 08b1 89bd
00000300: b5ef 42bd 784a 0a3d aeb5 ac3d fdfb 7cbc
00000310: ca78 c43d c89d 60bd 16a0 d2bd c455 76bc
00000320: c3cc e63d 87de 993d e2e1 8e3c e51d 083c
00000330: f4dd 273c 1233 d93d 34e4 49bc 76e3 753d
00000340: c5bc ce3a c85e 343d 8b6d 4f3e a274 e2bc
00000350: ef57 80bd a5bf 44bd c97a 243d c91e f9bd
00000360: 0446 203e bc4c 113d 1d4f 3cbd 41a9 663d
00000370: e460 203d f8e7 76bc 7d00 9cbd 88a7 1cbd
00000380: c000 47bd ae89 b7bd 94b9 173d f0a9 f2bc
00000390: 1250 753c 6c97 34bd 9bd0 a53c 6d94 2ebd
000003a0: b5c9 aa3d cb63 913d 2e59 653d d67c ab3d
000003b0: 5be5 833d cb2c 89bb 98d9 0d3d b3c4 78bc
000003c0: c73a 853d 7c15 85bd bde0 e93d d0f9 f23b
000003d0: c413 afbd 679d 44bd 8e51 0bbd f6ac 013d
000003e0: a918 293d 40dc ffbb b99a 3cbd 9ab7 57bd
000003f0: 46cf debd 9716 aa3d cc8f 0dbb 29f1 59bc

layer2.bias f4 [128]
-0.031322986 0.010196601 0.037794277 -0.05057992 -0.0027373184 0.069771625 -0.046501204 -0.038412433
0.0036043143 -0.02382878 -0.012094507 -0.015540438 -0.041968536 -0.045596167 -0.021760294 0.0054081827
-0.07440576 0.00910002 -0.026314832 0.09209186 -0.026916526 0.107606664 -0.078514904 -0.015237976
-0.06810219 0.08795101 0.08539072 -0.00369023 -0.053634454 -0.076355904 -0.014836345 0.05562543
-0.042555664 0.1161894 -0.027128763 -0.07121221 0.050997213 0.006868157 0.032772157 -0.024400229
-0.029577864 -0.097435705 0.040585082 0.02271743 0.08860553 0.028248359 0.029155228 0.014694149
0.10496866 -0.015204997 0.041933373 -0.030468632 0.047825407 0.02307057 -0.11345 -0.02874743
0.026790123 0.04718377 0.030363282 0.038566098 0.02942182 -0.008707084 -0.041899208 0.04756865
-0.016069226 -0.0008247667 -0.050947376 0.09144928 -0.051902577 -0.024994656 -0.028523622 0.10374077
-0.0014682772 0.097610004 -0.05768883 0.07139389 0.049407884 0.018899878 -0.026882589 0.091677815
-0.04022762 -0.019268664 -0.03417559 0.044248953 0.10914502 -0.017571077 -0.0727935 0.05521234
-0.08914321 -0.013189131 0.055469714 0.09668956 -0.04366208 0.042862017 -0.04952946 -0.03712197
-0.038112592 -0.042001773 0.060431518 0.051576246 -0.046170782 0.069941804 0.014412947 -0.02477746
0.08793137 0.105026715 -0.006634818 0.010349097 -0.050597463 0.11929422 -0.0193814 0.06929592
0.06887532 -0.03394949 -0.0117380945 0.013259507 0.07298507 0.04204293 0.031095585 -0.039172582
-0.0352448 -0.0015021545 -7.0680435e-05 0.07463533 0.10860803 0.023617862 0.078281574 -0.09776338
00000000: 884c 00bd a50f 273c 2cce 1a3d e42c 4fbd
00000010: 9564 33bb 6de4 8e3d 0c78 3ebd 5b56 1dbd
00000020: 5c36 6c3b 9334 c3bc 0a28 46bc 529d 7ebc
00000030: 33e7 2bbd 0cc3 3abd a542 b2bc 2037 b13b
00000040: 0c62 98bd 4018 153c 3492 d7bc a89a bc3d
00000050: 0c80 dcbc e260 dc3d 6ccc a0bd b4a8 79bc
00000060: 2979 8bbd a91f b43d 54e1 ae3d c9d7 71bb
00000070: cdaf 5bbd 7c60 9cbd 2414 73bc 7ed7 633d
00000080: d94e 2ebd b5f4 ed3d 243d debc b5d7 91bd
00000090: 74e2 503d 470e e13b 193c 063d fde2 c7bc
000000a0: 474d f2bc 5f8c c7bd 8b3c 263d e719 ba3c
000000b0: d176 b53d 1a69 e73c f2d6 ee3c babf 703c
000000c0: cff9 d63d 611e 79bc 54c2 2b3d 5a99 f9bc
000000d0: 93e4 433d 7efe bc3c 7958 e8bd bb7f ebbc
000000e0: f676 db3c c543 413d 6bbc f83c 7cf7 1d3d
000000f0: 0706 f13c 28a8 0ebc 819e 2bbd 58d7 423d
00000100: 9ca3 83bc 2835 58ba 32ae 50bd c349 bb3d
00000110: cc97 54bd 98c1 ccbc 5faa e9bc 0a76 d43d
00000120: 3573 c0ba c1e7 c73d 1f4b 6cbd f636 923d
00000130: ec5f 4a3d ebd3 9a3c e038 dcbc 94c1 bb3d
00000140: b8c5 24bd 51d9 9dbc b4fb 0bbd 643e 353d
00000150: 6d87 df3d 38f1 8fbc c214 95bd 5626 623d
00000160: b790 b6bd 3a17 58bc 3634 633d 2d05 c63d
00000170: 02d7 32bd 1590 2f3d 67df 4abd 350d 18bd
00000180: f31b 1cbd 0d0a 2cbd 0a87 773d 9d41 533d
00000190: 931d 3dbd a63d 8f3d 4824 6c3c 1afa cabc
000001a0: 5d15 b43d 3f18 d73d e368 d9bb 428f 293c
000001b0: 493f 4fbd 8750 f43d bec5 9ebc 05eb 8d3d
000001c0: 810e 8d3d 9f0e 0bbd 2351 40bc 673e 593c
000001d0: 3279 953d 3535 2c3d 2bbc fe3c 6e73 20bd
000001e0: da5c 10bd f1e3 c4ba 453a 94b8 68da 983d
000001f0: e36d de3d 3f7a c13c 1752 a03d 2b38 c8bd

layer3.weight f4 [3, 128]
0.046755902 0.10560025 -0.059203275 -0.016507206 0.13729839 0.07980395 0.09543514 -0.054977708
0.08005311 0.11371973 0.0644346 -0.074887685 0.061267033 0.19548236 0.059585135 0.051062632
-0.17278099 -0.015549254 0.033550885 0.06610055 -0.030674372 -0.061648633 0.18649971 -0.12935409
0.06763249 0.07367439 0.07443278 -0.046913795 0.02979147 0.15687273 0.11304778 0.11445211
-0.010842732 0.120837815 -0.08381916 -0.06986622 -0.19217975 0.04969207 -0.009855558 -0.11612706
-0.16780742 -0.09537387 0.013622878 0.028208107 -0.031692833 0.011705259 0.021968815 0.19547175
0.05350092 -0.09129091 -0.025374716 -0.042089306 0.025162665 -0.015674118 -0.11435205 0.0999276
0.03445596 0.1097841 0.16509368 0.18756388 -0.016137548 -0.061724618 -0.123891495 0.11194687
0.03661709 -0.057381798 -0.12362913 0.03982242 0.060236733 -0.15790543 0.017129501 0.20423864
0.0188862 0.15915687 0.1190979 0.09796234 0.044077452 -0.06235183 0.022112174 0.018050808
-0.08926767 0.17056032 0.025410147 -0.1461406 0.09608731 0.088044286 -0.03322918 0.040445704
-0.13433567 0.10427776 0.08578186 -0.21940173 -0.111195855 -0.013676858 -0.05733475 -0.09818976
0.034141194 0.016924411 0.1123481 -0.13648027 -0.117136225 -0.048882455 -0.16069216 -0.015108784
0.080798954 0.055545986 -0.08100685 -0.016393868 0.05867537 -0.01101906 0.10060219 0.07536599
-0.071954854 -0.20419401 0.0330117 0.17043741 0.010654874 -0.10360232 -0.20149024 -0.026419561
0.06711776 0.20523024 0.11348931 0.07015511 0.049275655 -0.10091327 0.0017790311 -0.05011641
0.007081169 0.097690836 -0.035099857 -0.053355932 0.1434938 -0.02670956 0.14720498 0.024316989
0.052156802 0.11430367 0.11302811 -0.12757935 0.026138116 0.20742238 -0.017507682 -0.061281305
-0.1339369 -0.106144994 0.117484294 0.07738794 -0.023262218 0.060236108 -0.036097985 -0.11368519
-0.017098136 0.04261193 0.04562804 -0.05171605 -0.033387873 0.17027843 0.06811855 0.08903843
-0.002754164 0.10534739 -0.06318857 -0.10401828 -0.14046308 -0.03394122 -0.0339844 -0.07137453
-0.22314496 0.05176733 0.0905492 0.055596218 0.013865551 0.012254691 0.07772003 0.1897084
0.0706315 -0.017338926 -0.012846506 0.04029849 -0.0680351 -0.11102665 -0.22276178 0.08116854
-0.093388945 0.080375664 0.1389585 0.26462618 0.076377794 -0.07008973 -0.058786035 0.046857968
0.11063053 -0.016649984 -0.09266106 -0.00047921087 -0.0063834935 -0.20691621 0.1322388 0.23765798
0.005137385 0.08208473 0.17602034 -0.056409553 0.027284447 -0.17287038 -0.041807946 -0.020562558
0.048320986 0.15775962 -0.07276614 -0.14761694 0.16117203 0.1095425 -0.10195703 0.08230949
-0.16913028 0.10021156 0.10308399 -0.19305636 -0.00061014615 -0.09925038 0.008531663 -0.14913292
-0.049968414 0.05218437 0.1725902 -0.12104669 -0.15458925 -0.10586166 -0.09914118 0.069487214
0.059937134 0.05229295 -0.03823071 0.053198528 0.116754234 -0.16399656 0.027035382 0.037508428
0.070805006 -0.16682225 -0.052764867 0.17759657 0.07882191 -0.116836496 -0.17232576 0.004060504
0.0045838705 0.17249776 0.12502323 0.09365448 0.04218174 -0.1584447 0.07460782 0.0055660233
00000000: 1e83 3f3d f244 d83d 227f 72bd 1f3a 87bc
00000010: f397 0c3e 4170 a33d 8073 c33d 4e30 61bd
00000020: e3f2 a33d e4e5 e83d 4af6 833d b75e 99bd
00000030: 24f3 7a3d 872c 483e 8b0f 743d 0d27 513d
00000040: 80ed 30be 4cc2 7ebc a76c 093d ba5f 873d
00000050: d248 fbbc 4783 7cbd c8f9 3e3e 6675 04be
00000060: e782 8a3d 99e2 963d 3770 983d ae28 40bd
00000070: 3e0d f43c 3fa3 203e 9885 e73d de65 ea3d
00000080: b7a5 31bc d179 f73d 61a9 abbd 0516 8fbd
00000090: c5ca 44be e989 4b3d 3579 21bc 06d4 edbd
000000a0: b5d5 2bbe 6053 c3bd 7e32 5f3c b014 e73c
000000b0: 58d0 01bd 6ac7 3f3c f2f7 b33c bf29 483e
000000c0: c823 5b3d bbf6 babd a3de cfbc d665 2cbd
000000d0: ef21 ce3c 0267 80bc 6831 eabd d7a6 cc3d
000000e0: b121 0d3d 7cd6 e03d 510e 293e bf10 403e
000000f0: e432 84bc f4d2 7cbd d3ba fdbd 6744 e53d
00000100: cdfb 153d 2d09 6bbd 4531 fdbd d51c 233d
00000110: cbba 763d f6b1 21be 2b53 8c3c ef23 513e
00000120: 3bb7 9a3c 05fa 223e 9ae9 f33d 7ba0 c83d
00000130: 8f8a 343d a264 7fbd 9724 b53c 4adf 933c
00000140: f8d1 b6bd 5da7 2e3e f128 d03c e2a5 15be
00000150: 6cc9 c43d 9050 b43d 521b 08bd 65aa 253d
00000160: 4a8f 09be 948f d53d 66ae af3d d9aa 60be
00000170: a7ba e3bd e614 60bc d8d7 6abd b717 c9bd
00000180: a3d7 0b3d 10a5 8a3c c316 e63d 7cc1 0bbe
00000190: 1ee5 efbd f838 48bd 7c8c 24be d58a 77bc
000001a0: ec79 a53d 3084 633d ebe6 a5bd 6f4c 86bc
000001b0: 9655 703d 4a89 34bc 8508 ce3d 7c59 9a3d
000001c0: 115d 93bd 3c18 51be 4737 073d 2587 2e3e
000001d0: c891 2e3c 742d d4bd 7553 4ebe d66d d8bc
000001e0: 0975 893d e027 523e 156d e83d 7bad 8f3d
000001f0: 45d5 493d 9eab cebd 612e e93a dd46 4dbd
00000200: 2709 e83b 2212 c83d dec4 0fbd c08b 5abd
00000210: 0af0 123e 02ce dabc e7bc 163e 6c34 c73c
00000220: 5fa2 553d 0b18 ea3d 487b e73d 29a4 02be
00000230: 9a1f d63c 8866 543e 456c 8fbc 1b02 7bbd
00000240: c126 09be 8c62 d9bd 9b9b f03d 917d 9e3d
00000250: 6890 bebc 23ba 763d 7bdb 13bd c8d3 e8bd
00000260: 6411 8cbc d989 2e3d 78e4 3a3d 35d4 53bd
00000270: b9c1 08bd 785d 2e3e bd81 8b3d c859 b63d
00000280: 347f 34bb 5fc0 d73d 0269 81bd 8907 d5bd
00000290: 8ed5 0fbe f305 0bbd 3a33 0bbd cf2c 92bd
000002a0: 1d80 64be fb09 543d dc71 b93d dcb8 633d
000002b0: 562c 633c e6c7 483c ae2b 9f3d eb42 423e
000002c0: 3fa7 903d 5d0a 8ebc 277a 52bc 0810 253d
000002d0: fd55 8bbd f161 e3bd aa1b 64be b13b a63d
000002e0: b442 bfbd ff9b a43d 234b 0e3e 157d 873e
000002f0: f66b 9c3d 348b 8fbd a0c9 70bd 24ee 3f3d
00000300: 4292 e23d 8c65 88bc 15c5 bdbd 983e fbb9
00000310: a02c d1bb d8e1 53be 9c69 073e 9d5c 733e
00000320: 8257 a83b 0a1c a83d ad3e 343e b40d 67bd
00000330: a283 df3c ef04 31be cf3e 2bbd cf72 a8bc
00000340: 3aec 453d bd8b 213e 6a06 95bd e528 17be
00000350: 480a 253e d157 e03d d9ce d0bd e191 a83d
00000360: 7d30 2dbe b83b cd3d b31d d33d 91b0 45be
00000370: 37f2 1fba c943 cbbd 63c8 0b3c 4db6 18be
00000380: aeab 4cbd 47bf 553d 7cbb 303e 54e7 f7bd
00000390: a54c 1ebe ffcd d8bd 880a cbbd 504f 8e3d
000003a0: a480 753d 2231 563d ce97 1cbd b3e6 593d
000003b0: d81c ef3d b7ee 27be 4e79 dd3c 70a2 193d
000003c0: 3702 913d 74d3 2abe f91f 58bd e0db 353e
000003d0: 626d a13d f947 efbd 2a76 30be fa0d 853b
000003e0: 4b34 963b 41a3 303e 1706 003e eccd bf3d
000003f0: c3c6 2c3d 543f 22be fccb 983d 3063 b63b

layer3.bias f4 [3]
0.009685455 0.030887686 0.044255774
00000000: beaf 1e3c 2c08 fd3c 8b45 353d
