save/20240225/128/target_net.pt (torch, 147622 bytes, 6 tensors)

layer1.weight f4 [128, 150]
0	0x3bc6f2e8	0.006071437
1	0xbc382510	-0.011239305
2	0x3c3d5210	0.01155521
3	0x3ca6f767	0.020381643
4	0xbd8d3e3c	-0.06896636
5	0x3b82a42c	0.003986856
6	0xbd452789	-0.048133407
7	0xbd8968fc	-0.06709477
8	0x3d55d062	0.052200682
9	0xbd3099cf	-0.043115433
10	0x3cbfcec7	0.023414029
11	0x3d3cbff7	0.04608151
12	0x3bea519b	0.0071508414
13	0xbd66d203	-0.056352627
14	0x3c5d9ed1	0.013526634
15	0xbb506a59	-0.003180167
16	0x3d804f7e	0.06265162
17	0xbd10615d	-0.035249103
18	0x3d085085	0.033279914
19	0x3c75671a	0.014978195
20	0x3dec058b	0.11524495
21	0x3db3fb70	0.08788192
22	0xbd1c7c95	-0.03820475
23	0xbcda8e71	-0.02667925
24	0xbc767313	-0.015042084
25	0x3d6a0a83	0.05713893
26	0x3ddcd9f2	0.10783757
27	0xbd3655c7	-0.044515397
28	0x3d2c8c4f	0.042125996
29	0xbd47aff8	-0.0487518
30	0xbd62224a	-0.05520848
31	0x3d0ba02d	0.034088302
32	0xbb058674	-0.002037433
33	0xbda27646	-0.07932715
34	0x3d3222c8	0.0434902
35	0x3ddc6d5a	0.10763045
36	0x3db20ce8	0.08693868
37	0xbd6f0ee2	-0.058363803
38	0xbd6a21f2	-0.05716128
39	0xbd83082c	-0.06398043
40	0x3d01255d	0.031529773
41	0x3dac8f6f	0.08425795
42	0xbd12f8a5	-0.035881657
43	0x3d802eaf	0.06258904
44	0x3d842d24	0.064539224
45	0x3b7fc75c	0.003902874
46	0x3c63c82b	0.013902704
47	0x3d33f9e0	0.04393947
48	0xbc92235d	-0.017839128
49	0x3cb29e37	0.021803958
50	0x3cac4217	0.021027608
51	0x3d4a6e51	0.049421612
52	0xbd347ac7	-0.044062402
53	0x3d70c464	0.058781043
54	0xbbe95ea2	-0.007121877
55	0xbcc92888	-0.02455546
56	0xbcd2b381	-0.02572036
57	0xbb997595	-0.0046832063
58	0x3cd8d122	0.02646691
59	0xbd6c8033	-0.057739448
60	0x3cc8d681	0.024516346
61	0x3daf63a7	0.08563929
62	0x3d008d9b	0.031385045
63	0x3d3f94f8	0.046772927
64	0xbd80bfcc	-0.06286582
65	0xb86f84da	-5.7105768e-05
66	0x3dbc54f0	0.09195888
67	0xbc6dfd72	-0.014525758
68	0x3d96d4ee	0.07364832
69	0xbd23085e	-0.0398029
70	0x3daea8ef	0.08528315
71	0x3d61be4b	0.05511312
72	0xbd6fcbf2	-0.058544107
73	0xbb06363c	-0.0020479104
74	0xbcea5582	-0.028605226
75	0x3d578902	0.052620895
76	0x3dbe7e10	0.09301388
77	0xbd0032fa	-0.031298615
78	0x3b9ce3b6	0.0047878874
79	0xbd792bf3	-0.06083293
80	0x3d418b51	0.047252003
81	0x3d1857a6	0.037192963
82	0x3d2eaff7	0.042648282
83	0x3d0937c5	0.03350045
84	0xbc2dfc46	-0.010619229
85	0xbbeae6d2	-0.007168629
86	0xbc80b0f4	-0.015709378
87	0x3b22db0f	0.0024849807
88	0xbd74f443	-0.05980326
89	0x3d487ca9	0.04894701
90	0xbd8bc41d	-0.06824515
91	0xbc95d0c6	-0.018288027
92	0xbd17efbd	-0.037093867
93	0xbc939e46	-0.018019807
94	0xbc44f011	-0.012020127
95	0xbe03c21c	-0.12867016
96	0x3c8b5465	0.017008016
97	0xbd97857d	-0.07398508
98	0xbd9147d5	-0.07093779
99	0xbd399f30	-0.04531783
100	0xbd51ba49	-0.051203046
101	0x3c93847e	0.018007513
102	0x3cb17df0	0.021666497
103	0x3cd1b1b2	0.025597427
104	0xbb38cc3f	-0.0028197912
105	0xbddaeaa1	-0.10689283
106	0x3aad9c2f	0.0013245399
107	0xbcb0c7e7	-0.021579696
108	0xbd85ff8c	-0.06542882
109	0xbd2c860f	-0.042120036
110	0xbe3453b7	-0.1761006
111	0xbdce3e18	-0.10070437
112	0xbd7438c3	-0.059624445
113	0xbcf879d3	-0.030331528
114	0x3d68a193	0.056794714
115	0xbe0bc28c	-0.13648432
116	0x3cd9abe2	0.026571218
117	0x3cc0a7f9	0.023517596
118	0x3ce5087b	0.027958145
119	0x3d138ea5	0.03602471
120	0xbdd0e692	-0.10200228
121	0x3d77c6ec	0.06049244
122	0xbd93b03d	-0.07211349
123	0xbca031ce	-0.019554999
124	0xbc11c026	-0.008895909
125	0xbc9f2da5	-0.019430945
126	0xbcfa6793	-0.030566966
127	0xbd7d902b	-0.061905067
128	0xbd78f223	-0.060777795
129	0x3c9b547d	0.018961186
130	0xbccae380	-0.024766684
131	0x3d7163c4	0.058933035
132	0x3c0f1d25	0.008734976
133	0x3c16bd7e	0.009200452
134	0xbcf54713	-0.029941117
135	0x3d514db2	0.051099487
136	0x3e0d6de5	0.13811453
137	0x3cd06bea	0.025442082
138	0xbc4a2fd0	-0.012340501
139	0xbcc52aa8	-0.024068192
140	0xbd01462c	-0.03156106
141	0xbc194075	-0.009353747
142	0x3d001b8b	0.031276267
143	0xbd2a4196	-0.041566454
144	0x3d624f9b	0.0552517
145	0x3e9787d6	0.29595822
146	0x3e20f83f	0.15719698
147	0x3de206f3	0.11036482
148	0x3d24ae3f	0.040205237
149	0x3ce13ef3	0.027495837
150	0xbd9cb345	-0.076513804
151	0x3d289aef	0.04116338
152	0xbc4e8148	-0.012604065
153	0xbba969f6	-0.005170102
154	0xbd26adf6	-0.040693246
155	0xbd85954c	-0.06522617
156	0x3cfa158c	0.030527852
157	0xbd8256d4	-0.063642174
158	0xbcfea7db	-0.0310859
159	0xbcba177f	-0.022716282
160	0xbd0d415c	-0.03448616
161	0xbd84df44	-0.06487897
162	0xbc6b34f2	-0.014355885
163	0xbd3878a7	-0.045036938
164	0x3bfb87dc	0.007676108
165	0xbc94fe9e	-0.018187817
166	0xbd56a419	-0.05240259
167	0xbd0cc6b4	-0.034369186
168	0x3b84fb65	0.004058289
169	0x3d3bde30	0.04586619
170	0xbd7316ec	-0.059348032
171	0x3d2fa227	0.04287925
172	0xbd4e9020	-0.050430417
173	0xbd8bfc5c	-0.06835243
174	0x3c083aa5	0.008314763
175	0xbc873a65	-0.016507337
176	0x3d0c5e05	0.03426935
177	0xbdb4916f	-0.08816802
178	0xbd713b23	-0.058894288
179	0x3c23a30f	0.009987607
180	0xbd53ecca	-0.05173949
181	0xbcd8981a	-0.026439715
182	0x3bfed5f3	0.0077769696
183	0xbd874a05	-0.06605915
184	0xbd73f273	-0.05955739
185	0xbd720004	-0.059082046
186	0xbb03dfcd	-0.002012241
187	0xbc1b2efe	-0.009471653
188	0x3d19b735	0.037528235
189	0xbcad977e	-0.021190401
190	0xbd65afab	-0.056075733
191	0xbd6483ab	-0.05578963
192	0xbdabd967	-0.083910756
193	0x3d172ade	0.036906116
194	0x3cdb2922	0.026753012
195	0xbce27453	-0.027643358
196	0xbc77d68c	-0.015126836
197	0xbcb88528	-0.022524431
198	0xbcab0cb6	-0.020880084
199	0xbd5c4329	-0.053774986
200	0xbe128056	-0.14306769
201	0xbc9f9015	-0.019477883
202	0xbdc489b8	-0.0959658
203	0xbd6c60f2	-0.05770964
204	0xbd3f8acf	-0.046763238
205	0xbd3289e8	-0.04358855
206	0x3c16a6d5	0.009195049
207	0xb9ffca7c	-0.00048788253
208	0x3c2666de	0.010156361
209	0xbcaa5456	-0.020792168
210	0xbd4cb391	-0.049975935
211	0xbccaa119	-0.02473502
212	0x3d190dad	0.037366558
213	0x3bfe84b4	0.0077672843
214	0xbca856f6	-0.020549279
215	0x3cdcf7a1	0.026973547
216	0x3cbcd69f	0.023051558
217	0xbc97d916	-0.018536132
218	0x3a9a0c5e	0.0011752953
219	0x3d88032d	0.06641231
220	0xbd03212d	-0.03201406
221	0x3d1f5c85	0.038906593
222	0xbd404d59	-0.046948764
223	0x3ca6159f	0.020273982
224	0xbce8575a	-0.028361965
225	0x3ccdb628	0.025111273
226	0xbd66df93	-0.05636556
227	0x3d2d431e	0.042300336
228	0x3cbc4eb0	0.02298674
229	0x3ad5a0ba	0.0016298511
230	0xbd1ab456	-0.037769638
231	0xbdbaacb8	-0.09114975
232	0x3ccaf578	0.024775252
233	0x3ab9f9cf	0.0014188829
234	0xbb4f38e1	-0.0031619596
235	0xbd25443f	-0.040348288
236	0x3c8f8e6c	0.017523967
237	0x3c033e14	0.008010406
238	0xbd832834	-0.064041525
239	0x3c6017a3	0.01367751
240	0x3b442f18	0.0029935297
241	0xbd39ae08	-0.045331985
242	0xbdb9c258	-0.09070271
243	0x3ad72cd1	0.0016416555
244	0x3d1de0d6	0.0385445
245	0x3e126c06	0.1429902
246	0xbd27a72f	-0.040930923
247	0x3d357338	0.044299334
248	0x3c0cbc8d	0.008589876
249	0x3d955dee	0.07293306
250	0x3e21df7f	0.15807913
251	0x3d834e7d	0.06411455
252	0x3b940ade	0.004517897
253	0x3d535ab2	0.051600166
254	0x3da6a0af	0.08136117
255	0x3d0db8e5	0.034600157

layer1.bias f4 [128]
0	0x3d263be7	0.04058447
1	0xbd3ebc90	-0.046566546
2	0xbca55a1e	-0.020184573
3	0x3d6dab6a	0.0580248
4	0xbc5ae912	-0.013361232
5	0xbca7a4d6	-0.020464342
6	0x3d7ea00b	0.062164348
7	0x3d255ece	0.040373616
8	0xbc21d2ff	-0.009876966
9	0x3d5a16ea	0.05324451
10	0xbd949206	-0.07254414
11	0xbda8c06f	-0.08239829
12	0x3d86acfd	0.06575964
13	0xbc86a20d	-0.016434694
14	0xbd998f5e	-0.07498048
15	0xbaf70cfb	-0.0018848473
16	0xbd5a718a	-0.053330936
17	0x3d3493c7	0.044086244
18	0xbd7c5acc	-0.06161003
19	0xbd58cbaa	-0.052928604
20	0x3da51177	0.08059972
21	0x3c8e3134	0.017357446
22	0xbbe684f3	-0.0070348918
23	0x3b4cd5f1	0.0031255449
24	0xbcbd057f	-0.02307391
25	0xbdb28d07	-0.08718305
26	0x3be6040a	0.0070195245
27	0xbd847374	-0.064673334
28	0xbd874d25	-0.06606511
29	0xbb04e715	-0.0020279337
30	0xbdc7b188	-0.09750658
31	0xbd86363d	-0.06553314
32	0xbc99de46	-0.018782746
33	0x3d6e2de2	0.058149226
34	0xbd9b579d	-0.0758507
35	0xbcc732f9	-0.024316298
36	0xbd70ffc3	-0.058837663
37	0x3bf0117c	0.007326303
38	0xbd1ad205	-0.037797946
39	0x3a484e91	0.0007641102
40	0xbd1cf676	-0.03832098
41	0xbe0954ac	-0.13411206
42	0x3d6c7c4b	0.057735723
43	0xbd4f0eb1	-0.05055112
44	0x3c6e98eb	0.014562826
45	0x3d1b709e	0.037949197
46	0xbcc514c9	-0.024057763
47	0xbcf32e5b	-0.02968519
48	0x3c8633e5	0.016382167
49	0x3ccfb1f8	0.025353417
50	0xbdd9520a	-0.10611351
51	0x3c0c8ce5	0.008578514
52	0xbd22c6bf	-0.03974032
53	0xbd071cb5	-0.03298636
54	0xbe0d366d	-0.13790293
55	0x3c0a936c	0.008458
56	0x3dd00721	0.1015761
57	0x392f501f	0.00016719148
58	0xbda9679f	-0.08271717
59	0xbbd55bf9	-0.006511208
60	0x3b961e1d	0.0045812265
61	0xbc3df6e8	-0.011594512
62	0x3d8a2ea4	0.06747177
63	0xbc8bc4e5	-0.01706166
64	0xbce0843b	-0.027406802
65	0xbe1ceabd	-0.1532392
66	0x3d5498a9	0.0519034
67	0x3c7ebdbc	0.015548166
68	0x3cdeeada	0.027211595
69	0x3cff5c53	0.031171953
70	0xbc076624	-0.008264098
71	0xbddbe7c2	-0.10737564
72	0xbdb9a700	-0.09065056
73	0xbda5e39f	-0.08100056
74	0xbc6f47ea	-0.014604548
75	0xbcf4d1e3	-0.029885238
76	0x3c872f74	0.01650212
77	0xbd8b12c5	-0.067906894
78	0x3d0382d5	0.032107193
79	0xbc8779ad	-0.016537512
80	0xbc6676e3	-0.014066431
81	0x3ce921b3	0.028458452
82	0xbd0c5ae5	-0.03426637
83	0x3ce519aa	0.02796634
84	0xbddd2429	-0.107979126
85	0xbd908de5	-0.07058314
86	0x3d458de1	0.04823101
87	0xbd2f69e7	-0.042825606
88	0x3d946006	0.072448775
89	0x3ba28f46	0.004960927
90	0x3d8ea1b4	0.06964436
91	0x3c6fd233	0.014637518
92	0x3d74046c	0.05957453
93	0xbc409218	-0.011753581
94	0xbd0fda35	-0.035120208
95	0x3d479631	0.048727218
96	0xbd9ec1d5	-0.07751814
97	0xbdcc27b8	-0.09968513
98	0xbc999986	-0.018749963
99	0xbce16792	-0.027515206
100	0x3c24746f	0.010037526
101	0x3c3a07df	0.011354416
102	0x3d12ee7d	0.03587197
103	0x3d1aafa6	0.037765168
104	0xbd82ff95	-0.06396405
105	0xbd71215b	-0.0588697
106	0xbb2f7026	-0.0026769727
107	0xb78b32cd	-1.6593747e-05
108	0x3d88d0a4	0.0668042
109	0xbd457991	-0.048211638
110	0x3ce86ae2	0.028371278
111	0x3db81957	0.08989208
112	0x3dbcefa0	0.09225392
113	0xbcecd6ea	-0.028911073
114	0x3b871d7d	0.0041233883
115	0xbdd67922	-0.10472323
116	0x3bd0e692	0.0063751424
117	0xbd350448	-0.044193536
118	0x3da10a37	0.078632765
119	0xbdd6e10a	-0.104921415
120	0xbb368f97	-0.0027856582
121	0xbca9aa06	-0.020710956
122	0xbc639dfa	-0.013892645
123	0x3d2b6757	0.0418466
124	0x3d37b558	0.044850677
125	0xbd8dcc6c	-0.06923756
126	0xbdb46b27	-0.088095
127	0xbdb62170	-0.088930964

layer2.weight f4 [128, 128]
0	0x3d9ab905	0.07554821
1	0x3da21887	0.079148345
2	0xbbf6af3c	-0.007528214
3	0xbd6212ab	-0.055193584
4	0x3dc66af9	0.09688372
5	0xbc3b5c7f	-0.011435627
6	0x3d448441	0.04797769
7	0xbdddd32a	-0.10831292
8	0xbd7c64f3	-0.06161971
9	0x3e0204cd	0.12697144
10	0xbdf0f983	-0.117663406
11	0xbe67e7a2	-0.22646955
12	0x3d2374f7	0.03990647
13	0x393fd9b8	0.00018296286
14	0xbd409d09	-0.04702476
15	0x3dab2d87	0.08358293
16	0x3d59f0a2	0.053208
17	0xbdcc6571	-0.09980286
18	0x3da71067	0.081574254
19	0x3b01f39d	0.0019829043
20	0xbd066904	-0.032814994
21	0xbd5647e9	-0.052314673
22	0x3b373dcf	0.0027960425
23	0x3df478d4	0.11937109
24	0x3db825d7	0.089915924
25	0xbe4b49d8	-0.19852388
26	0xbe65bc2b	-0.22435062
27	0x3d745fd3	0.059661698
28	0x3d9bb176	0.07602207
29	0x3d0cfbd4	0.03441985
30	0x3db2be3f	0.08727693
31	0xbdc4f8a8	-0.0961774
32	0x3b9288ee	0.0044718897
33	0x3c2eb24f	0.010662629
34	0xbd616c43	-0.055034887
35	0x3d959dfe	0.07305525
36	0x3bae7496	0.0053239567
37	0xbdaf4cff	-0.08559608
38	0x3ad3b16a	0.0016150896
39	0x3ce73c8b	0.028227111
40	0xbdd37ea1	-0.10326887
41	0x3cca57a9	0.024700003
42	0x3d8888c4	0.06666711
43	0xbe06b65d	-0.13155504
44	0xbd2d5a8f	-0.04232269
45	0x3e25155f	0.16121434
46	0xbda42266	-0.080143735
47	0xbd92ac15	-0.07161728
48	0x3e1e36c6	0.15450582
49	0xbcc82461	-0.02443141
50	0xbde774ca	-0.113015726
51	0xbe7ce064	-0.24694973
52	0xbcb1d4a7	-0.021707846
53	0x3da47087	0.080292754
54	0xbd7f379b	-0.06230889
55	0xbda040a6	-0.07824831
56	0x3d08f0ad	0.03343265
57	0xbd8c123c	-0.068394154
58	0xbdec792a	-0.11546548
59	0x3d113065	0.035446543
60	0xbe2fd80f	-0.17172264
61	0xbdce2839	-0.100662656
62	0xbda27bbe	-0.07933758
63	0xbd34272f	-0.04398268
64	0x3d6edf3b	0.058318358
65	0x3cf56e23	0.029959744
66	0x3db74410	0.08948529
67	0x3d8a15a5	0.067424096
68	0x3bb1347f	0.0054078694
69	0xbd6f92ea	-0.058489718
70	0x3e11c346	0.14234647
71	0xbe1b84ee	-0.15187427
72	0x3d8337d5	0.064071335
73	0xbd9a4886	-0.07533364
74	0x3d46a401	0.04849625
75	0xbddddc89	-0.10833079
76	0x3d9d87c6	0.07691912
77	0x3d1204e6	0.035649203
78	0xbce195aa	-0.027537186
79	0xbc63c2b2	-0.013901399
80	0xbdd7f341	-0.10544444
81	0x3c393810	0.01130487
82	0xbddd2811	-0.10798658
83	0xbd04e715	-0.03244694
84	0x3d95f57e	0.073222145
85	0x3db2eb90	0.08736336
86	0xbdd283d9	-0.10279054
87	0xbb639883	-0.0034728355
88	0x3c123555	0.008923848
89	0xbd949c2d	-0.07256351
90	0xbccb7728	-0.024837092
91	0xbc07a24d	-0.008278442
92	0x3b893f94	0.0041884873
93	0xbe06fe3d	-0.13182922
94	0x3d385967	0.045007136
95	0x3dc476f9	0.09593005
96	0xbc9c370d	-0.019069219
97	0xbd499390	-0.049212992
98	0x3c700753	0.014650184
99	0xbd604fe3	-0.054763686
100	0x3c4999d1	0.012304739
101	0xbe75c1bc	-0.23999685
102	0xbd817b4c	-0.06322345
103	0x3dd91cea	0.10601218
104	0xba4456f0	-0.00074897613
105	0x3e53c361	0.2068
106	0x3d5ba492	0.053623743
107	0xbdf21454	-0.118202835
108	0x3db906d7	0.09034508
109	0x3cc4e6b0	0.024035782
110	0x3df2f7ac	0.11863646
111	0x3cf9c6a4	0.030490227
112	0x3d926fee	0.07150255
113	0x3dcbb739	0.09947056
114	0x3e1e4ca6	0.15458927
115	0x3de48793	0.11158671
116	0x3b2e44ef	0.002659138
117	0xbd9c933d	-0.07645271
118	0xbdf16f7c	-0.11788842
119	0x3d15b56e	0.036549978
120	0x3ccc8a29	0.024968224
121	0x3d2bcdae	0.0419442
122	0xbe00e09d	-0.12585683
123	0x3dbb1180	0.09134197
124	0x3decc043	0.115601085
125	0xbea6398e	-0.32465786
126	0xbb9c212d	-0.004764697
127	0xbd78777b	-0.06066082
128	0x3ce62282	0.028092626
129	0x3d7d484b	0.061836522
130	0x3d9508c5	0.07277063
131	0xbd2a8fb6	-0.04164096
132	0x3c593a9a	0.013258601
133	0x3c7953cc	0.015217733
134	0x3dd2e0d2	0.10296787
135	0x3d257ed7	0.040404167
136	0xbd8b6e2d	-0.06808124
137	0xbd8507e5	-0.064956464
138	0xbc9c6845	-0.019092688
139	0x3e4488f1	0.19192864
140	0x3d2d945e	0.042377822
141	0xbc4e91b1	-0.012607978
142	0xbcda7ed1	-0.026671799
143	0x3db70d5f	0.08938097
144	0x3d055e9d	0.032560933
145	0x3cc06019	0.023483323
146	0x3dc3ee41	0.09566928
147	0xbe10d115	-0.14142258
148	0xbca0d517	-0.01963286
149	0x3de07c6b	0.10961231
150	0xbcc255a9	-0.023722487
151	0xbce50df2	-0.027960751
152	0xbd668e52	-0.05628807
153	0xbdb5677f	-0.08857631
154	0xbd3c0dd8	-0.04591164
155	0x3da9340f	0.082618825
156	0xbb327597	-0.0027230734
157	0x3c90ba6d	0.01766702
158	0xbc6e303b	-0.014537866
159	0xbcb96178	-0.022629485
160	0x3d5c1b51	0.05373699
161	0x3da73a96	0.08165471
162	0x3b56afd1	0.0032758603
163	0x3d09c145	0.03363158
164	0x3dae24e6	0.085031316
165	0x3dbaf7b7	0.09129279
166	0xbd39623f	-0.04525971
167	0xba766d9b	-0.0009400488
168	0xbba99f17	-0.0051764357
169	0x3d6b6ec2	0.057478674
170	0x3b2bcf3e	0.0026216055
171	0x3b855dd5	0.0040700235
172	0x3d1a7cdd	0.037716735
173	0x3c9ae335	0.018907169
174	0xbb6e7cca	-0.0036390298
175	0xbd19364d	-0.0374053
176	0x3d595aa2	0.05306495
177	0xbcf50254	-0.029908337
178	0xbd836f4d	-0.06417713
179	0x3b74ca14	0.0037351893
180	0x3daf245f	0.08551859
181	0x3cd91c22	0.026502673
182	0x3dd6c422	0.10486628
183	0x3cf726c4	0.030169852
184	0x3c986d86	0.018606912
185	0x3cf905ac	0.030398212
186	0xbd266ac7	-0.040629175
187	0x3d5d6502	0.054051407
188	0x3d3f5740	0.046714067
189	0x3cd45579	0.025919663
190	0x3cad2f96	0.021140855
191	0xbd89b0dd	-0.06723187
192	0xbd42ef91	-0.04759175
193	0x3d0a4ac4	0.03376271
194	0x3dacb67e	0.08433245
195	0xbc7cfc83	-0.015441063
196	0x3dc47889	0.09593303
197	0xbd609e02	-0.054838188
198	0xbdd29ffa	-0.10284419
199	0xbc76562b	-0.0150351925
200	0x3de6cc0b	0.11269387
201	0x3d99de46	0.075130984
202	0x3c8ee28c	0.01744201
203	0x3c081e84	0.008308057
204	0x3c27dddf	0.010245769
205	0x3dd932ca	0.1060539
206	0xbc49e409	-0.012322434
207	0x3d75e354	0.06003125
208	0x3acebd70	0.001577301
209	0x3d345ea8	0.044035584
210	0x3e4f6e00	0.20256805
211	0xbce2751a	-0.027643729
212	0xbd80587a	-0.062668756
213	0xbd44bfa1	-0.048034314
214	0x3d247aaf	0.040156063
215	0xbdf91eac	-0.12164053
216	0x3e204557	0.15651451
217	0x3d114c86	0.03547337
218	0xbd3c4eb0	-0.04597348
219	0x3d66a9aa	0.056314148
220	0x3d206176	0.039155446
221	0xbc76e843	-0.015070024
222	0xbd9c005e	-0.076172575
223	0xbd1ca78e	-0.03824573
224	0xbd470031	-0.048584167
225	0xbdb78998	-0.08961791
226	0x3d17b90e	0.037041716
227	0xbcf2a98c	-0.029621862
228	0x3c755073	0.014972794
229	0xbd3496e8	-0.044089228
230	0x3ca5d017	0.020240827
231	0xbd2e93d7	-0.04262146
232	0x3daac987	0.083392195
233	0x3d9163f5	0.070991434
234	0x3d6559ba	0.055993773
235	0x3dab7d36	0.083734915
236	0x3d83e545	0.06440214
237	0xbb892c0d	-0.0041861595
238	0x3d0dd8ed	0.034630705
239	0xbc78c40c	-0.01518346
240	0x3d853b74	0.065054804
241	0xbd85152d	-0.064981796
242	0x3de9e053	0.114197396
243	0x3bf2f93c	0.007414965
244	0xbdaf13f6	-0.08548729
245	0xbd449d41	-0.04800153
246	0xbd0b520c	-0.034013793
247	0x3d01ac85	0.031658668
248	0x3d2917ef	0.04128259
249	0xbbffdbac	-0.0078081694
250	0xbd3c9a78	-0.04604575
251	0xbd57b71a	-0.052664854
252	0xbddeceba	-0.10879274
253	0x3daa169f	0.08305096
254	0xbb0d9044	-0.0021600882
255	0xbc59f0a2	-0.013302

layer2.bias f4 [128]
0	0xbd004bfc	-0.031322464
1	0x3c271066	0.010196781
2	0x3d1acee5	0.037794966
3	0xbd4f2d28	-0.050580174
4	0xbb3364a7	-0.0027373226
5	0x3d8ee41d	0.06977103
6	0xbd3e77d0	-0.04650098
7	0xbd1d55c6	-0.038411878
8	0x3b6c36c2	0.003604338
9	0xbcc33451	-0.023828657
10	0xbc462890	-0.012094632
11	0xbc7e9cec	-0.015540343
12	0xbd2be6af	-0.041968044
13	0xbd3ac298	-0.045595735
14	0xbcb24208	-0.021760002
15	0x3bb1379f	0.005408242
16	0xbd986295	-0.07440678
17	0x3c151865	0.009100054
18	0xbcd79261	-0.026314916
19	0x3dbc9a78	0.0920915
20	0xbcdc7f52	-0.02691618
21	0x3ddc60da	0.107606605
22	0xbda0cbb7	-0.078513555
23	0xbc79a8f3	-0.015238035
24	0xbd8b79e4	-0.06810358
25	0x3db41f60	0.08795047
26	0x3daee1f6	0.085391924
27	0xbb71d82b	-0.0036902528
28	0xbd5baf82	-0.053634174
29	0xbd9c6076	-0.07635586
30	0xbc7313cc	-0.014836263
31	0x3d63d7ca	0.055625714
32	0xbd2e4e4f	-0.04255515
33	0x3dedf4da	0.11618967
34	0xbcde3ca2	-0.027128521
35	0xbd91d85d	-0.07121346
36	0x3d50e1e2	0.05099667
37	0x3be10e82	0.0068681845
38	0x3d063bb5	0.032771785
39	0xbcc7e388	-0.024400488
40	0xbcf24c94	-0.02957753
41	0xbdc78cd0	-0.09743655
42	0x3d263be7	0.04058447
43	0x3cba1a9f	0.022717772
44	0x3db57658	0.08860463
45	0x3ce76913	0.028248345
46	0x3ceed76a	0.029155452
47	0x3c70c07b	0.014694328
48	0x3dd6fa09	0.10496909
49	0xbc791eab	-0.015205066
50	0x3d2bc2be	0.041933767
51	0xbcf99a1b	-0.030468991
52	0x3d43e4e0	0.047825694
53	0x3cbcfe78	0.023070559
54	0xbde85823	-0.11344936
55	0xbceb7ff2	-0.028747533
56	0x3cdb7741	0.026790263
57	0x3d414438	0.0471842
58	0x3cf8bc3c	0.030363195
59	0x3d1df845	0.038566846
60	0x3cf10604	0.029421814
61	0xbc0ea7f5	-0.008707036
62	0xbd2b9ece	-0.041899495
63	0x3d42d820	0.047569394
64	0xbc83a2de	-0.016068872
65	0xba5835a9	-0.0008247742
66	0xbd50ad8a	-0.05094675
67	0x3dbb4a87	0.09145074
68	0xbd5497e1	-0.051902656
69	0xbcccc1a1	-0.024994673
70	0xbce9aa6b	-0.028523644
71	0x3dd47582	0.10373975
72	0xbac073a0	-0.0014682896
73	0x3dc7e838	0.09761089
74	0xbd6c4bda	-0.057689525
75	0x3d9237ad	0.071395256
76	0x3d4a6040	0.049408197
77	0x3c9ad45d	0.01890009
78	0xbcdc383a	-0.02688228
79	0x3dbbc20f	0.09167873
80	0xbd24c676	-0.04022833
81	0xbc9dd906	-0.019268524
82	0xbd0bfc5c	-0.034176216
83	0x3d353edf	0.04424941
84	0x3ddf871a	0.109144405
85	0xbc8ff0dd	-0.017570907
86	0xbd95147e	-0.07279299
87	0x3d6226fa	0.055212952
88	0xbdb69060	-0.08914256
89	0xbc581732	-0.013189124
90	0x3d633482	0.055469997
91	0x3dc604a1	0.09668852
92	0xbd32d73f	-0.043662306
93	0x3d2f902e	0.04286211
94	0xbd4aded1	-0.0495289
95	0xbd180ca6	-0.037121437
96	0xbd1c1c7d	-0.038113106
97	0xbd2c0a9e	-0.042002313
98	0x3d7786dc	0.060431346
99	0x3d5340ea	0.05157558
100	0xbd3d1cf0	-0.046170175
101	0x3d8f3d2d	0.0699409
102	0x3c6c2403	0.014412883
103	0xbccafa28	-0.024777487
104	0x3db415ff	0.08793258
105	0x3dd71881	0.105027206
106	0xbbd968b2	-0.006634795
107	0x3c298f76	0.010349145
108	0xbd4f3fe8	-0.050598055
109	0x3df45034	0.1192936
110	0xbc9ec5be	-0.0193814
111	0x3d8debac	0.069297165
112	0x3d8d0dcd	0.06887398
113	0xbd0b0edc	-0.033949718
114	0xbc405079	-0.011737936
115	0x3c593dba	0.013259346
116	0x3d957945	0.07298521
117	0x3d2c3596	0.04204329
118	0x3cfebc2c	0.031095587
119	0xbd207436	-0.039173327
120	0xbd105d75	-0.035245378
121	0xbac4e458	-0.0015021665
122	0xb89439be	-7.067945e-05
123	0x3d98dae5	0.07463626
124	0x3dde6ea1	0.108609445
125	0x3cc17a21	0.023617806
126	0x3da0529e	0.07828258
127	0xbdc837e9	-0.09776289

layer3.weight f4 [3, 128]
0	0x3d3f83c7	0.046756532
1	0x3dd84482	0.10559942
2	0xbd727e94	-0.059202746
3	0xbc873a64	-0.016507335
4	0x3e0c989c	0.13730091
5	0x3da37047	0.079803996
6	0x3dc37398	0.09543532
7	0xbd61301b	-0.054977518
8	0x3da3f2bf	0.080052845
9	0x3de8e58b	0.11371907
10	0x3d83f5ad	0.06443343
11	0xbd995e26	-0.074886605
12	0x3d7af36b	0.061267298
13	0x3e482cf8	0.19548404
14	0x3d740f5c	0.05958496
15	0x3d5126a2	0.051062234
16	0xbe30ed68	-0.17278063
17	0xbc7ec1a4	-0.015549097
18	0x3d096ce4	0.03355111
19	0x3d875f1d	0.06609938
20	0xbcfb4894	-0.030674256
21	0xbd7c82a4	-0.061648026
22	0x3e3ef980	0.18649864
23	0xbe0475cc	-0.12935561
24	0x3d8a8304	0.067632705
25	0x3d96e2fd	0.07367513
26	0x3d986fde	0.07443212
27	0xbd4028a1	-0.046913747
28	0x3cf40dcb	0.029791733
29	0x3e20a3de	0.1568751
30	0x3de78533	0.113047026
31	0x3dea65eb	0.114452206
32	0xbc31a500	-0.010842562
33	0x3df77994	0.12083736
34	0xbdaba9be	-0.08381985
35	0xbd8f1555	-0.06986491
36	0xbe44ca91	-0.19217898
37	0x3d4b89e9	0.04969207
38	0xbc217927	-0.009855545
39	0xbdedd40b	-0.116127096
40	0xbe2bd57f	-0.16780661
41	0xbdc352c9	-0.095372744
42	0x3c5f32b9	0.013622933
43	0x3ce714b3	0.028208112
44	0xbd01d074	-0.031692937
45	0x3c3fc6f8	0.011705153
46	0x3cb3f788	0.021968618
47	0x3e4829d8	0.19547212
48	0x3d5b23aa	0.05350081
49	0xbdbaf628	-0.09128982
50	0xbccfde81	-0.025374653
51	0xbd2c653f	-0.042088743
52	0x3cce22c0	0.025163054
53	0xbc80668b	-0.015673896
54	0xbdea30cb	-0.11435088
55	0x3dcca649	0.09992654
56	0x3d0d221c	0.034456357
57	0x3de0d70a	0.109785154
58	0x3e290dc7	0.16509162
59	0x3e401069	0.1875626
60	0xbc843364	-0.016137786
61	0xbd7cd254	-0.061724022
62	0xbdfdba5c	-0.12389061
63	0x3de543db	0.11194583
64	0x3d15fbbe	0.036617033
65	0xbd6b0933	-0.05738182
66	0xbdfd30dc	-0.12362835
67	0x3d231d76	0.039823018
68	0x3d76ba2c	0.06023614
69	0xbe21b167	-0.1579033
70	0x3c8c5315	0.01712946
71	0x3e512449	0.20423998
72	0x3c9ab775	0.018886307
73	0x3e22f987	0.159155
74	0x3df3e914	0.119096905
75	0x3dc89fd1	0.097961076
76	0x3d348b2f	0.04407805
77	0xbd7f6424	-0.06235136
78	0x3cb52517	0.022112412
79	0x3c93dfe5	0.018051097
80	0xbdb6d200	-0.08926773
81	0x3e2ea75f	0.17056035
82	0x3cd02981	0.025410416
83	0xbe15a5ce	-0.1461403
84	0x3dc4c9c8	0.09608799
85	0x3db45098	0.088044345
86	0xbd081a9d	-0.033228505
87	0x3d25a9cf	0.040445145
88	0xbe098f45	-0.13433559
89	0x3dd59051	0.10427917
90	0x3dafaddf	0.08578085
91	0xbe60aa83	-0.21940045
92	0xbde3bae2	-0.111196294
93	0xbc601483	-0.013676765
94	0xbd6ad733	-0.057334136
95	0xbdc91759	-0.09818906
96	0x3d0bd7a5	0.0341412
97	0x3c8aa564	0.016924568
98	0x3de616cb	0.11234816
99	0xbe0bc1c4	-0.13648134
100	0xbdefe4f3	-0.117135905
101	0xbd4838b1	-0.04888219
102	0xbe248bdf	-0.16068982
103	0xbc778b8b	-0.015108953
104	0x3da57a26	0.080799386
105	0x3d638433	0.055545997
106	0xbda5e6bf	-0.08100652
107	0xbc864c1d	-0.016393716
108	0x3d70563b	0.058675986
109	0xbc3488d8	-0.011018954
110	0x3dce0831	0.10060156
111	0x3d9a58ee	0.07536493
112	0xbd935d6d	-0.07195554
113	0xbe5117ca	-0.20419231
114	0x3d07380c	0.033012435
115	0x3e2e8756	0.17043814
116	0x3c2e917f	0.010654806
117	0xbdd42cda	-0.10360117
118	0xbe4e5331	-0.20148923
119	0xbcd86d22	-0.026419226
120	0x3d8974b5	0.06711713
121	0x3e522871	0.2052324
122	0x3de86c73	0.1134881
123	0x3d8fadac	0.07015547
124	0x3d49d531	0.04927558
125	0xbdceab79	-0.100912996
126	0x3ae92e33	0.0017790258
127	0xbd4d4671	-0.050116006
128	0x3be80873	0.0070810854
129	0x3dc811a1	0.097689874
130	0xbd0fc51c	-0.035100088
131	0xbd5a8c19	-0.053356264
132	0x3e12f00e	0.14349386
133	0xbcdace81	-0.026709797
134	0x3e16bcb6	0.14720425
135	0x3cc73488	0.024317041
136	0x3d55a24a	0.052156724
137	0x3dea17cb	0.114303194
138	0x3de77b0b	0.113027655
139	0xbe02a4f4	-0.12758237
140	0x3cd61f4a	0.026137967
141	0x3e5466a9	0.20742287
142	0xbc8f6cd4	-0.017507948
143	0xbd7b0243	-0.061281454
144	0xbe092695	-0.13393624
145	0xbdd96272	-0.1061448
146	0x3df09bc3	0.11748459
147	0x3d9e7d16	0.07738702
148	0xbcbe9008	-0.023262039
149	0x3d76ba2c	0.06023614
150	0xbd13dbfd	-0.03609847
151	0xbde8d393	-0.113684796
152	0xbc8c1174	-0.017098166
153	0x3d2e89af	0.042611774
154	0x3d3ae430	0.045627773
155	0xbd53d491	-0.05171639
156	0xbd08c105	-0.033387203
157	0x3e2e5dee	0.17028019
158	0x3d8b81b5	0.06811849
159	0x3db659b0	0.08903825
160	0xbb347f77	-0.0027541795
161	0x3dd7bfb2	0.1053461
162	0xbd816954	-0.06318918
163	0xbdd50799	-0.1040184
164	0xbe0fd64c	-0.14046592
165	0xbd0b057d	-0.03394078
166	0xbd0b32cd	-0.033983994
167	0xbd922cbe	-0.0713744
168	0xbe647fc3	-0.22314362
169	0x3d5409b2	0.05176706
170	0x3db971e0	0.09054923
171	0x3d63b88b	0.055595916
172	0x3c632beb	0.013865451
173	0x3c48c7a9	0.012254634
174	0x3d9f2b4e	0.077719316
175	0x3e4242e9	0.18970837
176	0x3d90a6e6	0.07063083
177	0xbc8e0a25	-0.017338822
178	0xbc5279b2	-0.012846397
179	0x3d2510ae	0.04029911
180	0xbd8b55f5	-0.068035044
181	0xbde3629a	-0.11102791
182	0xbe641afb	-0.22275917
183	0x3da63be6	0.081168935
184	0xbdbf42ef	-0.093389384
185	0x3da49b7f	0.08037471
186	0x3e0e4afd	0.13895793
187	0x3e877ccd	0.26462403
188	0x3d9c6b66	0.07637672
189	0xbd8f8a85	-0.070088424
190	0xbd70c914	-0.058785513
191	0x3d3fee08	0.046857864
192	0x3de29203	0.11063006
193	0xbc88659c	-0.016650014
194	0xbdbdc4e8	-0.092660725
195	0xb9fb3e6c	-0.0004792096
196	0xbbd12ce1	-0.006383524
197	0xbe53e2a1	-0.20691921
198	0x3e076945	0.13223751
199	0x3e735d3b	0.23766033
200	0x3ba856f7	0.00513732
201	0x3da81b97	0.08208387
202	0x3e343ea0	0.17602015
203	0xbd670e72	-0.05641026
204	0x3cdf8332	0.027284238
205	0xbe3104d8	-0.17287004
206	0xbd2b3eb7	-0.041807856
207	0xbca87316	-0.02056269
208	0x3d45ec68	0.048321158
209	0x3e218b1f	0.15775727
210	0xbd950735	-0.07276765
211	0xbe172886	-0.14761552
212	0x3e2509a7	0.16116963
213	0x3de057b3	0.10954227
214	0xbdd0cf21	-0.10195757
215	0x3da8918f	0.08230888
216	0xbe2d305f	-0.16912983
217	0x3dcd3c48	0.10021263
218	0x3dd31cfa	0.10308261
219	0xbe45b041	-0.19305517
220	0xba1ff285	-0.0006101507
221	0xbdcb4399	-0.099250026
222	0x3c0bc805	0.008531575
223	0xbe18b62e	-0.14913246
224	0xbd4cabc0	-0.04996848
225	0x3d55bff9	0.052185033
226	0x3e30bc2f	0.17259286
227	0xbdf7e6f4	-0.12104598
228	0xbe1e4ca6	-0.15458927
229	0xbdd8ce02	-0.10586168
230	0xbdcb0a91	-0.09914125
231	0x3d8e4fac	0.0694879
232	0x3d75801c	0.059936628
233	0x3d56307a	0.052292325
234	0xbd1c9726	-0.038230084
235	0x3d59e741	0.053199057
236	0x3def1c2b	0.116752945
237	0xbe27ef0e	-0.16399786
238	0x3cdd7952	0.02703539
239	0x3d19a21e	0.037508123
240	0x3d91024d	0.07080517
241	0xbe2ad2e7	-0.16682015
242	0xbd582091	-0.052765433
243	0x3e35dbe8	0.17759669
244	0x3da16ca7	0.07882052
245	0xbdef47eb	-0.11683639
246	0xbe3076a7	-0.17232762
247	0x3b850d5d	0.004060431
248	0x3b9633fe	0.0045838347
249	0x3e30a3f7	0.17250048
250	0x3e0005ab	0.12502162
251	0x3dbfcdff	0.093654625
252	0x3d2cc61f	0.04218113
253	0xbe223ecf	-0.15844272
254	0x3d98cb46	0.07460646
255	0x3bb66310	0.0055660084

layer3.bias f4 [3]
0	0x3c1eafdd	0.009685484
1	0x3cfd0902	0.030888084
2	0x3d354520	0.044255376
